Lenses_CP3project/LensesClassifyModel.tflite (tflite, 3240 bytes, 3 tensors)

sequential/dense/MatMul i1 [15, 9] scale=0.0042175865 zero_point=0
00000000: ccb5 cd2f 60b2 0bf4 e31d e956 5945 b34e
00000010: 77c4 a8c6 a213 ac3f dba1 9a4e 8868 44be
00000020: 3ca1 6995 8cb1 fc6e b3f4 d264 4ebf 3477
00000030: 39d5 b12c 4af9 bab0 19e6 f245 ebf2 de24
00000040: ba9a 56bf 032a 1bdc b057 b707 48c2 c3aa
00000050: 38ca 5e66 e6aa 3d29 3258 0c13 b8b5 875b
00000060: a410 b750 89cf 53d1 a140 dc6a 0f13 8162
00000070: e358 3750 67d9 dc03 d0ed 8d9d 5547 99c8
00000080: fe2b 5f20 7a2a fd
-0.2193145 -0.316319 -0.2150969 0.19822657 0.4048883 -0.32897174 0.04639345 -0.050611038
-0.122310005 0.122310005 -0.09700449 0.36271244 0.3753652 0.29101348 -0.32475415 0.32897174
0.5018928 -0.25305519 -0.3711476 -0.24462001 -0.39645314 0.080134146 -0.35427725 0.26570794
-0.1560507 -0.4006707 -0.4301938 0.32897174 -0.50611037 0.438629 0.28679588 -0.2783607
0.25305519 -0.4006707 0.44284657 -0.45128176 -0.48924002 -0.33318934 -0.016870346 0.4639345
-0.32475415 -0.050611038 -0.19400898 0.42175865 0.32897174 -0.27414313 0.2193145 0.5018928
0.24040243 -0.18135622 -0.33318934 0.1855738 0.3121014 -0.029523104 -0.29523104 -0.33740693
0.10543966 -0.10965725 -0.05904621 0.29101348 -0.08856931 -0.05904621 -0.14339794 0.15183312
-0.29523104 -0.4301938 0.36271244 -0.27414313 0.012652759 0.17713863 0.11387484 -0.15183312
-0.33740693 0.36693004 -0.3078838 0.029523104 0.30366623 -0.26149037 -0.25727278 -0.36271244
0.23618484 -0.22774968 0.39645314 0.4301938 -0.10965725 -0.36271244 0.25727278 0.17292105
0.21087933 0.3711476 0.050611038 0.080134146 -0.30366623 -0.316319 -0.51032794 0.38380036
-0.38801795 0.06748138 -0.3078838 0.33740693 -0.5018928 -0.20666173 0.3500597 -0.19822657
-0.4006707 0.26992553 -0.15183312 0.44706416 0.063263796 0.080134146 -0.5356335 0.41332346
-0.122310005 0.3711476 0.23196726 0.33740693 0.4344114 -0.16448587 -0.15183312 0.012652759
-0.20244415 -0.080134146 -0.48502246 -0.41754106 0.35849485 0.29944864 -0.4344114 -0.23618484
-0.008435173 0.18135622 0.4006707 0.13496277 0.51454556 0.17713863 -0.012652759

sequential/dense_1/MatMul i1 [10, 15] scale=0.004256617 zero_point=0
00000000: 2e24 9502 638b 662e d05b deeb a9a3 ba10
00000010: a5ad 43c0 f337 10fc 2b45 6754 5dd3 177f
00000020: 4aec 4b42 a1c2 b759 d7f5 3b5d d9de 344d
00000030: 6db0 2078 e024 7768 fed7 d563 1373 12ba
00000040: e9dc 080e 4a39 4b5e 3504 08dc d3b2 12e5
00000050: 5e5f 01f8 e626 41ab 4de4 3b21 5f10 ca6a
00000060: 27dc fc0c cce9 d04d 5c5f 9513 d49e c6df
00000070: e9ab 96af f3fa e535 c637 e830 4321 57eb
00000080: 4108 94b0 dcf3 4ab4 eb54 cf47 c0a4 529e
00000090: 6d00 afd0 ce67
0.19580437 0.1532382 -0.455458 0.008513234 0.42140508 -0.49802417 0.43417493 0.19580437
-0.2043176 0.38735214 -0.14472497 -0.08938895 -0.37032565 -0.39586535 -0.29796317 0.06810587
-0.38735214 -0.3532992 0.28519332 -0.27242348 -0.055336017 0.23411393 0.06810587 -0.017026467
0.18303452 0.29370657 0.43843153 0.3575558 0.39586535 -0.19154775 0.097902186 0.54059035
0.31498966 -0.08513234 0.31924626 0.28093672 -0.4043786 -0.26391023 -0.31073302 0.3788389
-0.17452128 -0.046822786 0.2511404 0.39586535 -0.16600806 -0.14472497 0.22134407 0.3277595
0.46397123 -0.34052935 0.13621174 0.51079404 -0.13621174 0.1532382 0.5065374 0.44268814
-0.008513234 -0.17452128 -0.18303452 0.42140508 0.08087572 0.48951092 0.0766191 -0.29796317
-0.097902186 -0.1532382 0.034052934 0.059592634 0.31498966 0.24262716 0.31924626 0.400122
0.22560069 0.017026467 0.034052934 -0.1532382 -0.19154775 -0.3320161 0.0766191 -0.114928655
0.400122 0.4043786 0.004256617 -0.034052934 -0.110672034 0.16175143 0.27668008 -0.36181244
0.3277595 -0.11918527 0.2511404 0.14046836 0.4043786 0.06810587 -0.22985731 0.45120138
0.16600806 -0.1532382 -0.017026467 0.0510794 -0.22134407 -0.097902186 -0.2043176 0.3277595
0.39160874 0.4043786 -0.455458 0.08087572 -0.18729115 -0.41714844 -0.24688378 -0.14046836
-0.097902186 -0.36181244 -0.45120138 -0.34478596 -0.055336017 -0.0255397 -0.114928655 0.22560069
-0.24688378 0.23411393 -0.1021588 0.2043176 0.28519332 0.14046836 0.37032565 -0.08938895
0.27668008 0.034052934 -0.45971462 -0.34052935 -0.1532382 -0.055336017 0.31498966 -0.32350287
-0.08938895 0.3575558 -0.20857422 0.3022198 -0.27242348 -0.39160874 0.34904256 -0.41714844
0.46397123 0.0 -0.34478596 -0.2043176 -0.21283084 0.43843153

sequential/dense_2/MatMul i1 [3, 10] scale=0.005030159 zero_point=0
00000000: 5e68 56f4 e2a3 b57f cd8b 9c4d 97dd 1d97
00000010: 8f3c 4260 d581 466c 46e7 da0f 4425
0.47283494 0.5231365 0.43259367 -0.060361907 -0.15090477 -0.4678048 -0.3772619 0.6388302
-0.2565381 -0.5885286 -0.5030159 0.38732225 -0.5281667 -0.17605557 0.1458746 -0.5281667
-0.56840795 0.30180955 0.33199048 0.48289526 -0.21629684 -0.6388302 0.35211113 0.5432572
0.35211113 -0.12575397 -0.19114605 0.07545239 0.3420508 0.18611588
